…
ning: 100% 62783488/62914560 [17:02:38<02:01, 1079.30frames/s]FTR PPO Training: 100% 62914560/62914560 [17:04:16<00:00, 1094.28frames/s]                                                                          2026-05-14 11:09:40 [62,021,422ms] [Error] [ftr_ppo_train] Training failed: Failed while executing module '0'. Scroll up for more info.
RuntimeError: TensorDictModule failed with operation
    EncoderCombiner(
      (encoders): ModuleDict(
        (FtrFlatObservation): FtrFlipperStyleEncoder(
          (cnn): HeightmapEncoder(
            (encoder): Sequential(
              (0): Conv2d(1, 16, kernel_size=(3, 3), stride=(2, 2), padding=(1, 1))
              (1): ReLU(inplace=True)
              (2): Conv2d(16, 32, kernel_size=(3, 3), stride=(2, 2), padding=(1, 1))
              (3): ReLU(inplace=True)
              (4): Conv2d(32, 32, kernel_size=(3, 3), stride=(2, 2), padding=(1, 1))
              (5): ReLU(inplace=True)
              (6): AdaptiveAvgPool2d(output_size=(2, 2))
              (7): Flatten(start_dim=1, end_dim=-1)
              (8): Linear(in_features=128, out_features=64, bias=True)
              (9): Identity()
            )
          )
          (state_encoder): MLP(
            (mlp): Sequential(
              (0): Linear(in_features=15, out_features=64, bias=True)
              (1): LayerNorm((64,), eps=1e-05, elementwise_affine=True)
              (2): Tanh()
              (3): Linear(in_features=64, out_features=64, bias=True)
              (4): LayerNorm((64,), eps=1e-05, elementwise_affine=True)
              (5): Tanh()
              (6): Linear(in_features=64, out_features=64, bias=True)
              (7): LayerNorm((64,), eps=1e-05, elementwise_affine=True)
              (8): Tanh()
            )
          )
        )
      )
    )
    in_keys=['FtrFlatObservation']
    out_keys=['y_actor'].

The above exception was the direct cause of the following exception:

Traceback (most recent call last):
  File "/opt/conda/envs/isaaclab/lib/python3.10/site-packages/tensordict/nn/sequence.py", line 624, in forward
…
wandb: Synced train_ftr_10999209_attempt_0: https://wandb.ai/marv_flipper_training/flipper_training_v2/runs/15b9869ccf8d6e0fe8d604768e07e3e3ebc81995bb147a7d4d78fc707ce40a95
wandb: Synced 6 W&B file(s), 0 media file(s), 0 artifact file(s) and 103 other file(s)
wandb: Find logs at: /ws/logs/wandb/wandb/run-20260513_195627-15b9869ccf8d6e0fe8d604768e07e3e3ebc81995bb147a7d4d78fc707ce40a95/logs
RuntimeError: TensorDictModule failed with operation
    EncoderCombiner(
      (encoders): ModuleDict(
        (FtrFlatObservation): FtrFlipperStyleEncoder(
          (cnn): HeightmapEncoder(
            (encoder): Sequential(
              (0): Conv2d(1, 16, kernel_size=(3, 3), stride=(2, 2), padding=(1, 1))
              (1): ReLU(inplace=True)
              (2): Conv2d(16, 32, kernel_size=(3, 3), stride=(2, 2), padding=(1, 1))
              (3): ReLU(inplace=True)
              (4): Conv2d(32, 32, kernel_size=(3, 3), stride=(2, 2), padding=(1, 1))
              (5): ReLU(inplace=True)
              (6): AdaptiveAvgPool2d(output_size=(2, 2))
              (7): Flatten(start_dim=1, end_dim=-1)
              (8): Linear(in_features=128, out_features=64, bias=True)
              (9): Identity()
            )
          )
          (state_encoder): MLP(
            (mlp): Sequential(
              (0): Linear(in_features=15, out_features=64, bias=True)
              (1): LayerNorm((64,), eps=1e-05, elementwise_affine=True)
              (2): Tanh()
              (3): Linear(in_features=64, out_features=64, bias=True)
              (4): LayerNorm((64,), eps=1e-05, elementwise_affine=True)
              (5): Tanh()
              (6): Linear(in_features=64, out_features=64, bias=True)
              (7): LayerNorm((64,), eps=1e-05, elementwise_affine=True)
              (8): Tanh()
            )
          )
        )
      )
    )
    in_keys=['FtrFlatObservation']
    out_keys=['y_actor'].

The above exception was the direct cause of the following exception:

Traceback (most recent call last):
  File "/opt/conda/envs/isaaclab/lib/python3.10/site-packages/tensordict/nn/sequence.py", line 624, in forward
    tensordict_exec = self._run_module(
…
